…
physical_device_desc: "device: 0, name: TITAN X (Pascal), pci bus id: 0000:82:00.0, compute capability: 6.1"
, name: "/device:GPU:1"
device_type: "GPU"
memory_limit: 11775635648
locality {
  bus_id: 2
  numa_node: 1
  links {
    link {
      type: "StreamExecutor"
      strength: 1
    }
  }
}
incarnation: 14248663559639409887
physical_device_desc: "device: 1, name: TITAN X (Pascal), pci bus id: 0000:83:00.0, compute capability: 6.1"
]
Model: "SampleCNN"
_________________________________________________________________
Layer (type)                 Output Shape              Param #   
=================================================================
conv2d (Conv2D)              (None, 254, 254, 16)      448       
_________________________________________________________________
conv2d_1 (Conv2D)            (None, 252, 252, 16)      2320      
_________________________________________________________________
max_pooling2d (MaxPooling2D) (None, 126, 126, 16)      0         
_________________________________________________________________
conv2d_2 (Conv2D)            (None, 124, 124, 32)      4640      
_________________________________________________________________
conv2d_3 (Conv2D)            (None, 122, 122, 32)      9248      
_________________________________________________________________
max_pooling2d_1 (MaxPooling2 (None, 61, 61, 32)        0         
_________________________________________________________________
conv2d_4 (Conv2D)            (None, 59, 59, 64)        18496     
_________________________________________________________________
conv2d_5 (Conv2D)            (None, 57, 57, 64)        36928     
_________________________________________________________________
max_pooling2d_2 (MaxPooling2 (None, 28, 28, 64)        0         
_________________________________________________________________
conv2d_6 (Conv2D)            (None, 26, 26, 128)       73856     
_________________________________________________________________
conv2d_7 (Conv2D)            (None, 24, 24, 128)       147584    
_________________________________________________________________
max_pooling2d_3 (MaxPooling2 (None, 12, 12, 128)       0         
_________________________________________________________________
conv2d_8 (Conv2D)            (None, 10, 10, 256)       295168    
_________________________________________________________________
conv2d_9 (Conv2D)            (None, 8, 8, 256)         590080    
_________________________________________________________________
max_pooling2d_4 (MaxPooling2 (None, 4, 4, 256)         0         
_________________________________________________________________
flatten (Flatten)            (None, 4096)              0         
_________________________________________________________________
dense (Dense)                (None, 512)               2097664   
_________________________________________________________________
dropout (Dropout)            (None, 512)               0         
_________________________________________________________________
dense_1 (Dense)              (None, 256)               131328    
_________________________________________________________________
dropout_1 (Dropout)          (None, 256)               0         
_________________________________________________________________
dense_2 (Dense)              (None, 1)                 257       
=================================================================
Total params: 3,408,017
Trainable params: 3,408,017
Non-trainable params: 0
_________________________________________________________________
Found 393989 images belonging to 2 classes.
Found 98496 images belonging to 2 classes.
	GPU COUNT: 2
	BATCH SIZE: 64
	VALIDATION RATE: 0.1
	TEST RATE: 0.1
	CHECKPOINT PERIOD: 10
	DATA DIRECTORY: /data/toshikawa/datas
…
